Models/Save Weights/best_model_mae=0.2966.pt (torch, 442488 bytes, 9 tensors)

user_embedding.weight f4 [300, 100]
00000000: 3c2d 2c3f c49d 833d f186 0bbe a658 30c0
00000010: ffb1 b33f ec2a e7bd 9d44 963f 15e0 1ac0
00000020: 9994 543f 92d1 e6bf 1048 923e e73e 01bf
00000030: ec30 9b3f 0448 333e 0fce 553d 7cac 3ac0
00000040: bd31 ae3f 0924 653d 3779 92be 3718 80bf
00000050: f93f bebd 6492 37be 723d f13f 8be8 223f
00000060: 3404 65bf 75df 893f ec12 6d3f bc21 88be
00000070: a3cf 18bf 1f4c b7be 5813 e5bf f6ee 61be
00000080: a3eb fabf 7753 00bf 3152 bf3f 3dc4 ba3d
00000090: 4dca 2a3f f92c 983f 7b18 2c3f fcef 85be
000000a0: a0d3 bfbf 510b abbf e9c3 a2bf e42d 6c3f
000000b0: 2f4c 7b3b 15dd 1740 be42 8d3f 7e79 b3bf
000000c0: 79f9 c8be c5ce d3bf 264d 43be 9bdf 95be
000000d0: 7fa5 8fbf 258e 6dbf 4e4d e7bf 9d68 44bf
000000e0: eda3 4abf 5eb4 30bf 07fd 7e3e cc9b 93be
000000f0: f6ff 46bc 651d 8dbf 2792 293e 89e7 2cbf
00000100: 1ac6 bc3e 65ac 9abd c8cc 36bf 10f3 99bf
00000110: dbde fc3f 591d 1040 e9ce e0be 5b9f 9dbf
00000120: 96d0 88bf 9e51 943f 43c1 043f 5909 5f3d
00000130: de22 13be 762c cb3e fb93 5bbf c7f7 5c3f
00000140: 6650 21bf 5122 65be 3a7b 72bf b4a6 a6be
00000150: 90a5 8b3e da35 8abf 7b12 59bf b39d 94bc
00000160: 6838 acbf 4e54 b93d 9451 bb3f 9c4f 133e
00000170: 8dc0 663e 5e49 9a3e 8130 06bf 03a1 b8bf
00000180: 8a0f 2c3f c442 e83f 4986 9b3f 8a97 eb3e
00000190: 1c5c de3c e78b 243d 5bde d6be 566d e5be
000001a0: b66b 8a3f 687e f03f 6051 83bf ab4e 803e
000001b0: 3c83 02c0 872d 64bf a8ba 0ac0 0963 413e
000001c0: f3fa 96bf b234 26bd 933b ed3d 8e97 123f
000001d0: 65cc 76be 3133 54bf 3eda a4bf c33e 7e3e
000001e0: 61d1 2640 c456 11bf d39f a9bf ed54 703f
000001f0: 391b b4bf df4c 063f 3834 8f3f 2d5a 913f
00000200: 28f1 46be f1e4 053e 3480 2040 cba7 85be
00000210: d79a 0b3f c89d 983d 4492 7cbf 6a8d 86bf
00000220: deb6 0ebf 7430 33bf 0a79 933f eb78 763e
00000230: 87f4 cbbf a433 1340 1219 08c0 ee89 b6be
00000240: 6b13 71bf 8ae3 08bf 09c5 ce3e 4db3 673f
00000250: 701d 28bf 1d77 3a3f 7152 c23f 390a ea3d
00000260: d43e 7ebe b74c ec3f 62e9 8c3d aed3 7cbf
00000270: 5cea 263f 58ed 643d b2a5 973e baa0 eebf
00000280: 980c ab3f cf31 66bf 321f 82bf 921b 0fbe
00000290: d6c8 f33e 1b2e 4dbf 3a9c 6ebf 26af 20bf
000002a0: e78c 713e 3fa3 d13e 0262 623f 8936 1d3d
000002b0: f12c 6dbe 2d60 24bf c1c7 4140 c982 563f
000002c0: 626f ac3f a7e4 a03d 6d9a abbe f454 abbf
000002d0: 6651 2f3f 3774 2e3f f41b 4f3e 7bc9 7f3f
000002e0: 4df6 f0be c49f a93e 98bd 083f 3e7c 613f
000002f0: 1f1a 17bf a604 eb3e 1242 423f 512e 97be
00000300: f6cb 3ebf aa9d e5bd 3792 ad3f 6a19 1bbf
00000310: 5492 36be 1c51 b03f bdc7 0ebf d0e2 113d
00000320: c95c 96bf 5cd4 823f 2aac 83bf b6dc 2bbf
00000330: 2428 833c 4bac 943f a994 56bf 150a a8be
00000340: ff4e 4bbf 97a6 75be ed1f 423f df66 0fbf
00000350: a9fe 533e bd4a 393f d914 65bf e64f 7dbd
00000360: 9801 82bf 401a 7fbf fe19 783f 25fd 1fc0
00000370: aaaf fb3f 33da b0be 7dfc 1f40 348c c73f
00000380: 3b54 42bd 7eab 06bf 3280 0340 3587 c53e
00000390: c7f8 e73d a506 59bd adc7 c3bf aa71 893f
000003a0: 14c9 2e3e c4ba 28bf 3826 ae3f 925a a63f
000003b0: d39c e4be 97a4 7a3f 1d56 c5bf 93b6 9dbf
000003c0: f344 acbf 3997 b43f 1dbf f83f fced ac3d
000003d0: b6a3 5a3d 53eb 88be 51d6 d3bf 282d bfbe
000003e0: 5c28 26bf 26ce ec3e 0b52 95be 383b fa3f
000003f0: f498 1b3f 188b f5bd 2534 37bd 14f3 89be
0.6725652 0.06426576 -0.13625695 -2.7554107 1.4038695 -0.112874836 1.1739689 -2.419927
0.8303924 -1.8032706 0.28570604 -0.50486606 1.2124305 0.1750794 0.052198466 -2.9167776
1.3608929 0.05594257 -0.28608105 -1.000739 -0.092895456 -0.17926937 1.8846877 0.6363608
-0.8945954 1.0771319 0.92607 -0.26588237 -0.5969183 -0.35800263 -1.7896528 -0.22063813
-1.9603161 -0.5012736 1.4946958 0.09119461 0.66714936 1.1888725 0.67224854 -0.26159656
-1.4986458 -1.3362828 -1.2716037 0.92257524 0.003834497 2.3728688 1.1035993 -1.4021451
-0.39252833 -1.6547476 -0.19072399 -0.2927216 -1.122238 -0.9279502 -1.8070467 -0.7672213
-0.7915638 -0.6902522 0.2490121 -0.288298 -0.012145987 -1.1024595 0.16559659 -0.67540795
0.3686989 -0.07552413 -0.7140622 -1.2027302 1.975551 2.2517912 -0.4390786 -1.2314256
-1.0688655 1.1587408 0.51857394 0.054452274 -0.1436877 0.39682359 -0.85772675 0.8631558
-0.63013303 -0.22376372 -0.9471928 -0.3254906 0.27274752 -1.0797684 -0.84793824 -0.018141603
-1.3454714 0.09049283 1.4634271 0.14385837 0.2253439 0.301341 -0.5241776 -1.4424137
0.6721121 1.8145375 1.2150356 0.46014053 0.02714353 0.040172484 -0.4196652 -0.4480998
1.0814121 1.8788576 -1.0259209 0.2506002 -2.03926 -0.8913197 -2.1676426 0.18885435
-1.1795334 -0.040577598 0.115836285 0.57262504 -0.24101408 -0.8289061 -1.2879102 0.24828629
2.6065295 -0.5677302 -1.32519 0.93879586 -1.4070808 0.52461046 1.1187811 1.1355644
-0.19427931 0.13075615 2.507825 -0.26104578 0.5453314 0.074519694 -0.98660684 -1.0511906
-0.55747783 -0.6999581 1.1521313 0.24069564 -1.5933999 2.300027 -2.1265302 -0.35652107
-0.94170254 -0.534722 0.403847 0.90507966 -0.6566992 0.72838 1.5181409 0.11427731
-0.24828655 1.8460912 0.06880452 -0.987605 0.65201354 0.05589041 0.29618603 -1.86428
1.3363218 -0.8991975 -1.016577 -0.13975361 0.47614163 -0.80148476 -0.9320713 -0.62767255
0.23588906 0.4094486 0.884308 0.038382087 -0.23161675 -0.6420925 3.027817 0.8379331
1.3471491 0.07856112 -0.33516255 -1.3385301 0.6848358 0.6814608 0.20225507 0.9991681
-0.47062913 0.33129704 0.534143 0.88080204 -0.5902423 0.45901984 0.75882065 -0.29527524
-0.7452997 -0.11211713 1.3560246 -0.60585654 -0.17829257 1.3774753 -0.55773526 0.035616696
-1.1747066 1.0221057 -1.0286915 -0.67133653 0.016010351 1.161508 -0.8382059 -0.32820192
-0.79417413 -0.2398933 0.75829965 -0.56016344 0.20702614 0.72379667 -0.89484936 -0.061843775
-1.0156736 -0.9964943 0.9691466 -2.4998257 1.9662983 -0.34541473 2.4997857 1.5589662
-0.04744361 -0.52605426 2.0546994 0.38579717 0.113267474 -0.052984852 -1.5295311 1.0737813
0.17068893 -0.6590998 1.3605413 1.299639 -0.44650897 0.97907394 -1.5416905 -1.2321342
-1.3458542 1.410865 1.9433323 0.084438294 0.053378783 -0.26742038 -1.6549779 -0.3733914
-0.64905334 0.4625103 -0.29164156 1.9549322 0.6078026 -0.11989421 -0.044727463 -0.26943266

place_embedding.weight f4 [437, 100]
00000000: 9d13 0e3f 680e 41bf 644b a5be 6b45 1c3d
00000010: 685b cf3e 1afd e4bd 285e cabf a651 02bf
00000020: a5fa a7bf 043c 0840 f935 c0bf 849d 73bf
00000030: 72b8 12bf a56b d5bf 4938 16be 97ae 953f
00000040: f25d bdbe 44db 96be b480 98be 421e 3dbf
00000050: 0d06 0540 3da7 46bf b247 163e 84b6 1340
00000060: 432f a43f fd27 c9bf 8558 52bf c29f 863d
00000070: 3aff 173f af1d 853f 135b e43e e39f 8abf
00000080: f3fd 0cbf fa2a 213f accc 183f 1eca 953e
00000090: a452 c3bf 5008 2abe c8cc df3f 9a29 483f
000000a0: cfbb c0bc 5e17 85bf b008 aa3f 562e c53f
000000b0: d557 c53f 94a4 7b3c 9474 25bf ad7b 2bbe
000000c0: 3e25 53bf 6ee0 05bf 2952 c23e 7431 1c3e
000000d0: c2f7 13bf 49ed 9b3f 342e edbe 242b 013f
000000e0: b918 c83e ca98 78bf 9389 d0bd dc73 603f
000000f0: 9e6e f43e e4b4 9fbe 0ba5 ad3f 426b 6f3e
00000100: 4213 7b3e e5d7 3dbe f9a5 00be 26ca 06be
00000110: 5ba6 5c3e b6e2 b2bf 7b24 693f faf2 ec3f
00000120: 5cc5 3a3f 1ef4 c7be ce2c 173f 6c77 b0bf
00000130: a1b2 cc3e 3984 dcbf ffe2 1a40 6363 943f
00000140: 7f60 68bf cdd4 55bf 76d7 3bbf 06dc 823d
00000150: 9753 50bf 521a 8f3f 9eca ebbe 3c9e 373f
00000160: d1c9 7fbf e5e4 9c3f 4934 253f 5a4d 3d3f
00000170: e245 933f 459f 3d3f 0c13 dabf 386f 203e
00000180: 6422 0240 0107 aebf 3447 4dbf 876b 55bf
00000190: bca9 2b3f f220 4cbf a0b0 2f40 2bdf c23f
000001a0: 8b85 c8bf 758b a8bf a7b6 c1bd 84d1 b5be
000001b0: 8b6b 6bbf 44d3 323c 1564 17bd 5248 ebbf
000001c0: 40e9 0bbe f0e0 873e ccd3 ea3e 1028 253f
000001d0: c5e0 fd3e 6ecc 04bf 0477 cc3f fa65 52bf
000001e0: ca8b 263f 90f4 a43e fcb2 dc3e 81ab 8a3d
000001f0: 64ee 95bf a2a1 b33f 7b23 06be 456a b6be
00000200: 0afb 263d a10b 04c0 6003 d5bd 543d 613f
00000210: 614f 0340 af61 873f fc10 b43f 772a 16bf
00000220: 9380 4a3f 94b9 373d f2f6 20bf 9f47 e93e
00000230: 7fd2 7c3e a051 c7be 4fe3 8dbf 02bd 74bf
00000240: 03be ed3e 8403 ed3f f86e f13f 91ef f0be
00000250: 0f53 a6be d64b 923f bd86 0ec0 43cd 813f
00000260: a73f 353f c235 053f 5ffe 36bf 2711 b5bf
00000270: fc09 17bf 15c3 8fbf 097c 9d3e 63fb 12bf
00000280: bfc0 b4bf c542 d5be ece5 cebf 3c76 953d
00000290: 193a 78be 5182 33bf 82eb a13f c643 c9be
000002a0: d84a 623e 3942 02bf fcf5 d1bd 7257 50bf
000002b0: a8a1 91bf 8c32 1cbf 4d2f bebf e64d 8cbf
000002c0: 3bba 11bf 64d8 c0bf f7df c3bf c59f e5bf
000002d0: 71b0 47c0 a2b9 023d d1d2 d1bf b33e 8ebf
000002e0: ceab c83f d7a9 ed3f 5020 bbbf b36f 66bf
000002f0: 16a1 84bf a985 86be 054a 85bd 032c d9bf
00000300: 9af4 863f ae35 833d 5db1 86bf f3cf 40bf
00000310: f7df 73be 34e2 9a3e 2723 08bf 21bf c43f
00000320: d3f9 3abf 6552 91bf 6566 84bf 4181 e1be
00000330: 674c 8f3e 0874 ffbf df7e 833c 22a2 62be
00000340: afdb 32bd ad83 75be d4fa a4be 847a 7b3e
00000350: 7d3d b43f d4c9 64bd be92 66bf 7725 203e
00000360: 3059 48bf e893 983f 4077 8a3f a9e7 733d
00000370: 8fd1 643f 42e1 503f 91a5 25bf 192e 223f
00000380: 332f 1ebf d031 60be 7d9c 15be ad40 28bf
00000390: 4b58 95bf 3fc9 673f 336e 87bf 5211 543e
000003a0: 89c5 213e 8242 1fbe fa61 0740 9a2a 683e
000003b0: 999e 8d3f 537c b93f 8abc e13e 08c1 8d3f
000003c0: 158f d13d f3ab 4abf 0b11 b4bd ffa1 73bf
000003d0: 304f 1dbe 8d71 93bf e638 463f 6838 803f
000003e0: 3a76 0abf f449 963f 1438 17c0 731a c43e
000003f0: 82fb de3f c17b db3f 625d 343c ff1f 9fbf
0.5549868 -0.7541261 -0.3228408 0.03815214 0.40499425 -0.11181088 -1.5809984 -0.50905836
-1.3123366 2.128663 -1.5016471 -0.95162225 -0.5731269 -1.6673476 -0.14669909 1.1693906
-0.36985737 -0.2946416 -0.29785693 -0.73874295 2.0784943 -0.77598935 0.14675787 2.3080149
1.2826923 -1.5715328 -0.8216632 0.0657344 0.5937382 1.0399684 0.44600734 -1.0830044
-0.55074996 0.629562 0.59687304 0.29255766 -1.5259595 -0.16604733 1.7484369 0.7818848
-0.023527054 -1.0397756 1.3283901 1.5404766 1.5417429 0.015359063 -0.6463101 -0.16746397
-0.824787 -0.5229558 0.37953308 0.1525324 -0.57799923 1.2181789 -0.46324313 0.5045645
0.39081362 -0.9710814 -0.1018249 0.8767679 0.47740644 -0.31192696 1.3565992 0.2338076
0.24519065 -0.18539388 -0.12563314 -0.13163051 0.21547835 -1.3975437 0.9107129 1.851165
0.72957397 -0.39053434 0.5905274 -1.3786445 0.39980033 -1.7227851 2.4201047 1.159283
-0.9077224 -0.83527833 -0.7337564 0.063896224 -0.8137755 1.1179907 -0.46053022 0.7172582
-0.9991732 1.2257353 0.64532906 0.73946154 1.1505702 0.7407115 -1.7037063 0.15667427
2.033349 -1.3595887 -0.8018677 -0.833672 0.6705587 -0.7973777 2.7451553 1.5224355
-1.5665754 -1.3167559 -0.09458666 -0.3551141 -0.9196097 0.010914627 -0.03696068 -1.8381445
-0.13663197 0.265388 0.45864713 0.64514256 0.49585548 -0.51874435 1.5973821 -0.82186854
0.6505705 0.32217836 0.43105304 0.06770993 -1.1713376 1.4033701 -0.13099472 -0.35627952
0.040766753 -2.0632098 -0.10401034 0.87984204 2.05172 1.0576686 1.4067683 -0.58658546
0.7910244 0.044854715 -0.6287681 0.45562455 0.24689673 -0.38929462 -1.1084994 -0.95600903
0.4643403 1.8516698 1.886199 -0.47057775 -0.32485244 1.1429393 -2.2269738 1.0140766
0.7080025 0.5203515 -0.7148189 -1.414586 -0.5899961 -1.1231409 0.30758694 -0.57414836
-1.4121321 -0.41652504 -1.6163917 0.07297942 -0.24240912 -0.7012072 1.2649996 -0.3930952
0.22098863 -0.508823 -0.10251996 -0.8138343 -1.1377459 -0.6101463 -1.4858185 -1.0961273
-0.5692479 -1.5066037 -1.5302724 -1.7939383 -3.1201441 0.031915314 -1.6392461 -1.1112884
1.5677431 1.8567456 -1.4619236 -0.9001419 -1.036166 -0.2627385 -0.06508259 -1.6966556
1.0543396 0.06406723 -1.0522877 -0.75317305 -0.23815905 0.30250704 -0.5317864 1.5370828
-0.7303745 -1.135327 -1.0343748 -0.44043925 0.27987978 -1.9957285 0.016051708 -0.22132161
-0.043666538 -0.23976012 -0.32222617 0.24558455 1.4081265 -0.05585654 -0.9006766 0.15639292
-0.7826109 1.1920137 1.0817642 0.0595471 0.8938226 0.81593716 -0.6470576 0.6335159
-0.6179077 -0.21894002 -0.14610477 -0.6572369 -1.166757 0.9054145 -1.0580505 0.20709732
0.1579801 -0.15552714 2.115355 0.22672501 1.1064025 1.4491066 0.44089156 1.1074533
0.10232369 -0.79168624 -0.08792313 -0.9516906 -0.15362239 -1.1519028 0.7743057 1.0017214
-0.5408665 1.1741319 -2.3627977 0.3830143 1.7420504 1.7147142 0.011008592 -1.243164

fc1.0.weight f4 [128, 200]
00000000: 85f7 413c b59e 0bbd 28dc 433c 194b 2e3b
00000010: 53de 473d bf39 2fbd c5cc 8e3c 6631 0f3d
00000020: 538e 5e3d e7a5 83bd 704a ca3c 5a7e e43b
00000030: 1eb1 6dbd c75f de3c f396 2c3d 1190 93bc
00000040: 3d9e e1bc 9ead 8c3c d098 5bbc 5590 673d
00000050: 49f7 4c3d de53 873d 2762 7cbd ff31 7d3d
00000060: 632b eb3c f178 eb3b b457 5f3d 5a15 55bd
00000070: 34d2 84bd 48fa 393d 5e72 3aba e43f 503d
00000080: 7466 64bd 52d3 773d b4ec 933d 4442 0cba
00000090: 83e9 8f3d 08e0 c33c e763 26bd 8897 173d
000000a0: d95c 3abd 14b2 203d e938 833d df9a 8c3c
000000b0: 73ae ebbc e303 243d 098b 43bd e7c3 90bd
000000c0: b5e2 82bd 6c1d 903d 5ae8 84bd 4d04 23bd
000000d0: 89a9 223d c022 793d 36f8 97bd 9c4b 0d3d
000000e0: dd86 84bd 8fde df3b d18e 323d 56aa 953d
000000f0: 5247 80bd 26ad 34bd 4a82 93bd 809f 173c
00000100: afe3 8eb9 5575 0abd 6e0a 5abc a961 f5bc
00000110: cda4 553d a633 ff3c 3a51 abbc ee5f 51bd
00000120: 389d 95bd 03cf 3e3c f1ff ebbc 7d3c ec3c
00000130: c85d 273c 238a d13c 2111 77bd 513c 173d
00000140: 8b85 663d 0ea9 33bd a2da 513d a863 60bd
00000150: e4be a2bc 79fd b9bc aa35 30bd ca0d c9bb
00000160: 0d2e 68bc 6aeb 813d 164b 96bd bda1 16bc
00000170: fa51 86bd 03b0 83bd 4557 6ebd f096 5c3d
00000180: 6f60 6a3d 2695 8fbd c959 c5bc c859 633d
00000190: 6a82 133d 50d4 8ebd d5dd 9a3c 52f3 61bd
000001a0: 5058 76bd 1df4 2b3d 9008 f7bc 9945 5dbd
000001b0: 6ac8 cd3c 1c23 663d b1fc 0dbc c9ed b1ba
000001c0: 0c63 1abc e704 23bd 0d81 573c 1c62 da3c
000001d0: 217c 6f3c f949 f33c f0d7 5fbd e089 8bbb
000001e0: a17c f3bc 2e01 c9bc f63d ff3c fd9f 94bc
000001f0: 779f a93c fbed a7bc a4ec 9c3b a4ca b43c
00000200: c5dc 77bd 3319 663d 9668 833d 0c83 443c
00000210: 66da 3e3d 6bfb 0d3d 5487 d7bb f1d4 05bd
00000220: fc41 3fbd 0ed7 e03c d7cf 283c b12a 29bc
00000230: e2d5 3f3c 2902 403b f256 f4bc 93d5 283d
00000240: 105a 1b3d 607e 7c3d 34c5 8b3d 33ce 4ebd
00000250: a3b4 183d 6ab9 553d 21be 98bd e1be 1a3d
00000260: 9393 09bd 63cf 43bc e96a 823d ff5c 1b3d
00000270: 616e 26bc d531 7bbd b91b d23b f8cc 77bd
00000280: 68cf 09bd 5cda 9a3a a539 5c3d 2927 813d
00000290: d08c ab3c 5f22 79bd 22a9 793d c291 523d
000002a0: fea1 8d3d e71d 80bd d591 e33c 57d9 d8bc
000002b0: 9666 44bd 19bd bf3a 3890 63bd b0f5 8abc
000002c0: 0f69 5fbd c7fe a93c 7c74 863c 301c 1a3c
000002d0: c43f 6abd 5051 6b3d b5f4 953d b7ab 1b3d
000002e0: 7887 80bd d9d2 753d 37a0 a2bc 586f 43bd
000002f0: 1d81 07bd 733d dcbc bb5d 6ebc 8cb0 0f3b
00000300: d6e0 04bd c4de 9a3c bc22 85bc cde6 2dbc
00000310: c492 f33b a66e 633b 4250 523d c1dd 073d
00000320: b4c2 ccbb ddfa 293d 58e1 6e3d 7a36 023d
00000330: 5879 943c 5b51 dbbc d253 213d 55fa 85bd
00000340: 98fe 08bd 9532 513c 8150 95bc 52c3 78bd
00000350: c7c7 78bd a666 6ebd eeb2 803d 1b30 033a
00000360: 78c6 f53a 7fba f8bc 9374 e83c ae2a 3dbd
00000370: 84aa 30bd 0990 993c a9d7 11bd 519d 2a3b
00000380: 2ebd 863d 5edb d03c 1067 403b 7938 343c
00000390: 6802 72bc 5508 01bc 45c0 c8bb 3187 443d
000003a0: 4827 fd3c d2b1 3fbd 3e36 11bd 4b47 aebc
000003b0: d86e 48bd 295f d53b 4003 c5bb 2267 7b3d
000003c0: 818b 1abc 9827 d6bc cd4d 20bb 7f42 fcbc
000003d0: fabf cabc 7ec6 8c3c 13be 39bb 57ea ef3c
000003e0: ac60 893d d764 de3c 572c 413c 42e2 51bd
000003f0: 52f5 bebc 76bf 3abd 61f2 763c 6666 90bc
0.011838798 -0.0340869 0.011954345 0.0026595055 0.04879601 -0.04277968 0.017431626 0.03495922
0.05433495 -0.06428128 0.024693698 0.00697307 -0.05803024 0.02714528 0.042136144 -0.018013032
-0.027541274 0.01717263 -0.013403133 0.05653413 0.050040517 0.06607793 -0.061617043 0.061815258
0.028707212 0.007186048 0.054527 -0.052022316 -0.064854056 0.045404702 -0.0007112379 0.05084218
-0.05576177 0.060504265 0.07222882 -0.00053504505 0.07026961 0.023910537 -0.040622618 0.037009746
-0.045498703 0.03923233 0.06407339 0.017163692 -0.028769707 0.04004277 -0.047740016 -0.070686154
-0.06390897 0.07036862 -0.0648963 -0.039799023 0.039712463 0.060824156 -0.07420389 0.034495935
-0.06471036 0.006831951 0.04359323 0.073078796 -0.06263603 -0.04411044 -0.07202585 0.009254336
-0.00027253988 -0.033803303 -0.013308151 -0.029953795 0.05215912 0.031152558 -0.020912755 -0.051116876
-0.07305378 0.011646035 -0.028808566 0.028837437 0.01021523 0.025578564 -0.06031907 0.036922757
0.0562797 -0.043862395 0.051233895 -0.05478254 -0.019866414 -0.022703873 -0.043019928 -0.006135677
-0.014171136 0.0634373 -0.0733854 -0.009193835 -0.065586045 -0.06430056 -0.058188695 0.053854883
0.057220872 -0.0701087 -0.024090664 0.055505544 0.036013044 -0.06974089 0.018904606 -0.05516369
-0.060142815 0.04198085 -0.03015545 -0.05402145 0.025119979 0.056185827 -0.008666203 -0.0013574894
-0.009423029 -0.039799597 0.013153327 0.02665811 0.014616997 0.029698359 -0.054649293 -0.0042583793
-0.029722514 -0.024536695 0.031157475 -0.018142695 0.020705922 -0.02049922 0.004788952 0.022069283
-0.060513277 0.056176376 0.064164326 0.011994135 0.046595 0.0346636 -0.0065774117 -0.03267378
-0.046693787 0.027446296 0.010303459 -0.01032512 0.0117087085 0.0029298163 -0.029826615 0.041219305
0.037927687 0.061643958 0.06824723 -0.050489616 0.037281644 0.052178778 -0.07458139 0.037779693
-0.033588003 -0.0119513 0.06368048 0.037930485 -0.010158152 -0.06132682 0.006411996 -0.060498208
-0.033645064 0.0011814344 0.05376591 0.06306297 0.020941168 -0.060823794 0.060952313 0.051408537
0.06915663 -0.062557034 0.0277795 -0.026470823 -0.047949396 0.0014628499 -0.05555746 -0.016962856
-0.05454355 0.02075137 0.016412966 0.0094061345 -0.057189718 0.057450593 0.07322065 0.038005557
-0.062758386 0.060015533 -0.019851787 -0.047713608 -0.033082116 -0.02688477 -0.014548714 0.0021925298
-0.032440983 0.018905051 -0.016251914 -0.010614109 0.0074332673 0.0034703403 0.05134607 0.033170465
-0.0062487964 0.041499007 0.058320373 0.031790234 0.018124267 -0.026772192 0.039386578 -0.06541888
-0.033445925 0.012768407 -0.018226864 -0.060733147 -0.060737398 -0.058203362 0.06284128 0.00050044217
0.0018751165 -0.030362366 0.0283759 -0.04618328 -0.043131366 0.01874544 -0.03560606 0.002603371
0.06579052 0.025495227 0.0029358305 0.010999792 -0.0147710815 -0.007875522 -0.006126436 0.04798049
0.03090252 -0.046800442 -0.03545212 -0.02127423 -0.048933834 0.006511588 -0.0060123503 0.061377652
-0.009432674 -0.026141927 -0.0024460435 -0.030793427 -0.024749745 0.017184492 -0.0028342053 0.029286547
0.06707892 0.027147694 0.011790357 -0.051241167 -0.023310337 -0.045592748 0.015072436 -0.017626952

fc1.0.bias f4 [128]
00000000: 99ce 7a3d d05f bebc 8191 73bd 936a 7a3d
00000010: f1b1 34bd c9a5 533d 3f3d 54bd 6d9d 09bd
00000020: 34d0 efbc 8eb7 133d c878 8bbd 6b0d a4bc
00000030: b1f6 4dbd fef3 2bbc aeb4 443d 2449 5ebd
00000040: df84 653d 3f27 a53a 554d 0a3c 98ae 0bbb
00000050: 41a6 12bc 07a0 35ba c9f9 0bbc 96a5 e4bb
00000060: 1e3c 82bd bb30 a03d 50d6 563d 29f7 7e3c
00000070: 6b03 6ebd d8b5 6eb9 c4c4 603c fc11 013d
00000080: 96b2 f4bc a3ab 5dbc 2b36 99bc 69d2 883d
00000090: aed5 18bd e180 a83d b6a1 9d3d fceb 9fbc
000000a0: 93d8 86bd af2f 533d 0c23 8bbb 9193 413d
000000b0: abcb 433d a8fa 783b d7ae e33c 81f2 953d
000000c0: 5f75 f4ba 6e9d ec3c 1b24 67bd f80e 3f3d
000000d0: 1acc 8dbd 2cda 5bbd cec7 8bbd 1b34 713d
000000e0: 4f6c 52bd 6406 e43b a8d6 d33c 6033 1cbd
000000f0: 916b 6b3c 6bae 8e3d 78e5 33bd a419 8f3d
00000100: 2050 a23c 653b 25bd ded4 29bc bf5c 35bd
00000110: e2b0 573d bc32 523d a185 8ebc e8f5 9bbc
00000120: 6098 67bd dbea 34bb 4b6d 49bd eb29 64bd
00000130: 86d9 903d cb40 7d3d 32bc 6bbb d698 2b3d
00000140: 0f75 89bd 25b1 9b3c 9045 d8bc 046d 23bd
00000150: 619f 4ebd 47e4 da3b 391e 8c3b 73db 88bc
00000160: 78d8 903b 2768 043d 61de 8abd 4e4f d3bc
00000170: 0739 cbbc e018 6ebc 5b33 fb3c e3b9 e83c
00000180: cf6b 4ebd 7957 3dbd e07b 8a3d 6029 46bd
00000190: 31bf 8d3d 396a cbbb a31d b7bc cd90 f73c
000001a0: 4dbe 123d 41c2 83bd 4fb0 71bd 1dd8 29bb
000001b0: aad8 78bc 27ec 55bd 29cb 163d fa6f 3dbd
000001c0: f96d 8dbd beee df3c 9c4d b73c 9d38 283d
000001d0: e102 8f3d b704 963d 8bb7 983d a541 3a3d
000001e0: 9b2a 133d 29e9 68bb b30e 573c 6469 58bd
000001f0: a65a b6bc 1b40 9b3d 6e7d 093d bc4d 64bd
0.061232183 -0.023239046 -0.059464935 0.061136793 -0.04411501 0.051671777 -0.05181622 -0.0335974
-0.029274084 0.036063723 -0.068101466 -0.02002593 -0.05028409 -0.010495184 0.048023872 -0.05426897
0.05603492 0.0012600197 0.008441289 -0.0021313783 -0.008950771 -0.0006928448 -0.00854344 -0.006977747
-0.06359123 0.078217946 0.052450478 0.015561857 -0.05810873 -0.00022765191 0.013718788 0.03151129
-0.029870313 -0.013529691 -0.018702587 0.066807576 -0.037313156 0.08227707 0.076968595 -0.019521706
-0.06584277 0.051559146 -0.0042461213 0.04725987 0.047801655 0.00379912 0.027793331 0.073216446
-0.0018650702 0.028883662 -0.056430917 0.046645135 -0.06923695 -0.05367486 -0.06825219 0.058887582
-0.051372822 0.0069587696 0.025859192 -0.038134933 0.014368908 0.06966861 -0.04392001 0.069873124
0.019813597 -0.040339846 -0.010365693 -0.044277903 0.052658923 0.051317915 -0.017397704 -0.019038156
-0.0565418 -0.0027605805 -0.049176496 -0.05570404 0.07072739 0.06182937 -0.0035970327 0.041893803
-0.0671178 0.019005368 -0.026400357 -0.039898887 -0.050444964 0.006680045 0.0042760638 -0.016706204
0.0044203363 0.03232589 -0.06780697 -0.025794651 -0.024807466 -0.014532298 0.030664137 0.02840895
-0.050395783 -0.046226 0.067619085 -0.048379302 0.069212325 -0.006207731 -0.022353 0.030220414
0.035826016 -0.06433535 -0.05900603 -0.0025916167 -0.0151883755 -0.052227166 0.036814842 -0.046249367
-0.06905741 0.02733552 0.022375874 0.041069616 0.06982971 0.07325118 0.07456883 0.04547276
0.035929304 -0.0035539365 0.013126063 -0.052834883 -0.022260021 0.075805865 0.033566885 -0.055738196

fc2.0.weight f4 [64, 128]
00000000: 61d8 343d 86b2 953a 2741 833d ea71 8a3d
00000010: 6d51 26bb 6c44 f13c 0f19 393d 9fd9 653d
00000020: 39c4 23bd 7b7f 62bc 5d69 7f3d 0432 71bd
00000030: fdf2 b13d 03a5 81bd b46d 58bd 77ba 60bd
00000040: 6f7f 11bd ee88 573d 9c83 8dbd 45b5 953c
00000050: 096e 99bb a98e 993c 92dd 85bd 4d85 813c
00000060: ffe3 d6bb 292f aa3d df7a 263d 3e08 a43b
00000070: 54ba a639 d44a 6039 de68 76bd 698d eabc
00000080: bf4c 48bd 6a22 b2bb fa2a e5bc 9a23 a53d
00000090: d60b 48bc 6f3a c83d fdfc 053b 6627 17bd
000000a0: bb31 113c 2534 45bd bf91 a43c efa2 913d
000000b0: 3ab9 d5bc 1ea0 61bc bc44 6f3d 896c 6d3d
000000c0: cbc4 4e3d 73d5 5fbd 4dc7 dfbb f9b7 acbc
000000d0: 07b0 57bd d250 323d 77c5 54bd f716 a63d
000000e0: ed31 0fbd d3f1 76bc c590 9039 ffb6 84bd
000000f0: 7177 98bd 667b d0bc 8ebc 193d a47e 513d
00000100: 5127 f5bb edb1 b53d 8ea9 14bb c69a 813c
00000110: 2e3f 43ba 02f7 1abd dbe8 373d 4851 ee3c
00000120: 7f4d 3ebd dbcd b63c fcfb 923d 1183 983d
00000130: cc15 363d 5ead 543d cdc8 84bc 51c3 2cbd
00000140: 903d 993d dae7 b93c 0769 8fbc 2e05 203d
00000150: a482 63bd c4b5 6a3d 8ce1 ce3c d054 9ebd
00000160: b3ed 743d 796b ba3c e298 15bd a300 e53b
00000170: c22b 913c 662c 80ba e55f 023d 5b69 26bc
00000180: 4118 073d 7fe3 65bb 8e1d b83d 48f8 9c3d
00000190: a682 a23c 1ea6 af3d ea5e e2bc d629 51bc
000001a0: 784c 96bc aa8b 80bd ea07 78bc 58a1 9d3c
000001b0: 4c12 f13c aa3b 853d 445a 37bd 8db1 b23b
000001c0: 0e71 7f3c 6107 e6bc db17 92bd ae25 87bc
000001d0: 2030 403d 6be3 433d c07c e73c df3e 78bd
000001e0: 0a3f 553d 5800 b33d 4311 513d 3d6e b5bc
000001f0: baab 433c 0269 39bd 97d7 1abd d341 83bc
00000200: 0192 20bd 33a6 e43c a547 943d d658 37bd
00000210: f96f a7bd bb56 5b3d 0a2d 613c 6508 8fbd
00000220: c84f 04bd ed16 94bc 94a8 0bbd cf1a 45bd
00000230: 9d00 663d 033a 253d e19b 093d fe65 a23d
00000240: da65 d4bc 7cd1 7fbd 2d91 5d3d c900 bc3d
00000250: 3e90 603d 634a f63b fab7 453c 5343 13bc
00000260: 23c9 00bc d1f2 573c b3d0 b6bb 362a 3f3d
00000270: 2d0e 65bd bc0c 25bd b014 95bd 6ed1 083d
00000280: 17e3 ba3d 72ca a53c 6c9b 293d ab93 a03d
00000290: f205 f6bc 8182 303d 8eb2 1ebc 93e8 a43c
000002a0: 5cd3 83bc 0012 9d3d 18b1 27bc fdf9 dabc
000002b0: 51af 673d f5a1 813d 97ad ae3d 2dd4 85bd
000002c0: a4a0 b53c 52b5 723d f426 e9ba 98ed 56bc
000002d0: b9e8 7cbd a99d 8e3d 22a5 7c3d 052b ac3d
000002e0: 2cb1 813d d50c 35bd db57 bcbc 870f 2ebd
000002f0: a958 a13d 5f24 ce3c 8f79 b43d 49ae 943d
00000300: bf2d 903c 73ff 813d f65e 67bd 55e8 8bbd
00000310: 6f99 b43d c0af 7a3d 7436 423d 7e12 203c
00000320: 4189 c5ba a3aa 68bc 077b aa3c 311f 043d
00000330: 26ec aa3d cef6 96bd 14a0 84bb 4f27 d6bc
00000340: 1769 43bd afec 763c 5e2a 0bbd 31bb dbbc
00000350: c0d0 853b 1f31 b33c 3e29 4ebd c177 7cbd
00000360: 2566 56bc 6569 18bd e487 9cbd 2f5a c73b
00000370: ba49 6f3c 77f3 d43b df6d 9abd a1ca 2b3d
00000380: cb72 353d a73a b63d b364 a63a ec9f ea3c
00000390: 4b7c 1f3d 7e2e ae3c 5e04 433d 68ac 8e3d
000003a0: 0268 633b 1aa5 80bc 0ee5 6f3d ddc2 f2bc
000003b0: f2ca 683a 16ff 5fbc 806a 9e3d 3082 6e3c
000003c0: 90aa 30bd 9200 b93d 99c5 72bd 3453 efbc
000003d0: 7252 863d 9d43 573c 1524 4c3d 74c4 563d
000003e0: 3bcd 8a3d 71f5 a4bc 8ac0 0f3d 7a15 fb3c
000003f0: 3a4c 213d c158 c23d f613 85bd 2ea1 83bd
0.044151668 0.0011421002 0.06408911 0.06760009 -0.0025378123 0.029451571 0.045189913 0.056115743
-0.039982054 -0.013824339 0.06235634 -0.05888559 0.086889245 -0.063303016 -0.052838996 -0.054865327
-0.03552192 0.05262082 -0.06909868 0.018274913 -0.0046823067 0.018744783 -0.06536402 0.015810633
-0.006557941 0.08309776 0.040644523 0.0050058654 0.00031800813 0.0002139018 -0.060158603 -0.028631883
-0.048901316 -0.0054362314 -0.027974594 0.08063431 -0.012209853 0.0977677 0.0020444982 -0.036902808
0.008861954 -0.048145432 0.020089028 0.07111155 -0.0260893 -0.013771085 0.05841516 0.057964835
0.050480645 -0.05464692 -0.0068291784 -0.021083819 -0.052658107 0.043534108 -0.05194613 0.08109849
-0.034959722 -0.015072304 0.00027573682 -0.06480216 -0.07444657 -0.025449466 0.037533335 0.051146165
-0.0074814935 0.08871827 -0.002268407 0.015820872 -0.0007448074 -0.03783322 0.044899803 0.029091492
-0.046460625 0.022314956 0.071769685 0.07446874 0.04445438 0.05192315 -0.01620903 -0.042178456
0.07482445 0.022693563 -0.017506136 0.03906744 -0.05554451 0.05730225 0.025254034 -0.077310205
0.059797 0.022756325 -0.036522754 0.0069886013 0.01772106 -0.0009778857 0.031829733 -0.010156955
0.032982115 -0.0035078225 0.08990012 0.076645434 0.019837689 0.08576606 -0.02763315 -0.012766322
-0.01834701 -0.06276639 -0.015138606 0.019241974 0.02942767 0.06505521 -0.04476382 0.0054532946
0.015590919 -0.02807969 -0.07133456 -0.01649746 0.046920896 0.047824305 0.028257728 -0.060606834
0.05206207 0.087403 0.051041853 -0.022147292 0.011942798 -0.04526616 -0.03780326 -0.016022598
-0.03920174 0.027911281 0.072402276 -0.044762455 -0.08175654 0.05354951 0.013743648 -0.06984023
-0.032302648 -0.018077338 -0.034096316 -0.04812127 0.05615293 0.040338527 0.033595923 0.0792961
-0.025927473 -0.06245564 0.05409353 0.09179837 0.05482506 0.007516192 0.012067789 -0.008988219
-0.007860455 0.013180451 -0.005579078 0.046671115 -0.055921722 -0.040295348 -0.072793365 0.033402853
0.09125345 0.020238135 0.041407987 0.078406654 -0.030032132 0.04309321 -0.009686125 0.020130431
-0.016091995 0.07669449 -0.0102350935 -0.026730532 0.05656368 0.06329719 0.085292034 -0.0653461
0.022171326 0.05925495 -0.0017788098 -0.01311817 -0.06174538 0.06963665 0.06168092 0.08406643
0.06332621 -0.04420169 -0.022991112 -0.042495277 0.07878239 0.025163827 0.08812248 0.07259805
0.017599938 0.06347551 -0.056487046 -0.06831423 0.08818328 0.061202765 0.04741521 0.009770034
-0.0015070812 -0.014200839 0.020810617 0.03225631 0.08345823 -0.07371293 -0.004047403 -0.02614179
-0.047707643 0.015071078 -0.03397595 -0.026822658 0.004083723 0.021874009 -0.0503323 -0.061637644
-0.013085877 -0.037209887 -0.076431066 0.006083749 0.01460498 0.00649875 -0.075404875 0.04194129
0.04429893 0.08897906 0.0012694806 0.02864071 0.038936894 0.021262404 0.047611587 0.06966478
0.0034699445 -0.015703727 0.058568053 -0.029633934 0.0008880339 -0.013671657 0.07735157 0.014557406
-0.04313141 0.09033312 -0.059270475 -0.029214479 0.06558694 0.013138679 0.049839098 0.052433446
0.06777426 -0.020136567 0.03509573 0.03064989 0.039379336 0.09489585 -0.06497948 -0.06427227

fc2.0.bias f4 [64]
00000000: d7f5 6dbd cf02 73bc 8558 4c3d d51d 8f3d
00000010: 7e49 283d 7b78 f43c c1dd 8c3d 1044 bb3d
00000020: b59c 873d 1549 553d b2f7 cb3b 531b 203d
00000030: 34a2 c8bb d52f 41bd a96d 513d 20a7 6e3d
00000040: bbe1 b2bc cc78 fb3c c570 a4bb 0e7e 71bc
00000050: c6ac 443d fead a33d 91c2 973c c7ee 7cbc
00000060: be26 673d e686 8dbd 8656 a7bd ac45 be3b
00000070: 7e85 3a3c 7b3c a13d 1c32 073d 32ba 533d
00000080: a397 abbd b449 bc3d 03da 033b 122c d4bb
00000090: ae24 2cbd 530e 903d 51f7 a3bd 30da adbd
000000a0: 03aa 253d cf7b 443d 666b c03c 9738 7ebd
000000b0: 36ad c2bc e896 68bd 5bea 86bd 79c4 5c3d
000000c0: 2fd8 133c 8a97 59bd a490 6abb 67eb b43d
000000d0: 3b43 6d3b f035 c23c a88e bbbc 3966 04bd
000000e0: 3715 513d f9e9 97bd b527 e33c 2b08 a43d
000000f0: b0fb 593d 08c3 84bd 6d70 7a3c 5459 5e3d
-0.05809578 -0.014832213 0.049889106 0.06988112 0.041085713 0.029842606 0.06878234 0.09143841
0.06621686 0.05207165 0.006224596 0.03908856 -0.0061228517 -0.047164757 0.05112997 0.05826485
-0.021836152 0.030697249 -0.005018326 -0.014739526 0.048016332 0.07992171 0.018525394 -0.015437788
0.05643343 -0.069104955 -0.081708 0.0058066454 0.011384366 0.07872864 0.033006772 0.05169124
-0.08378532 0.09193745 0.0020118959 -0.00647498 -0.042027168 0.07033982 -0.08006156 -0.084888816
0.04044534 0.047969636 0.023488712 -0.062065687 -0.023764234 -0.05678454 -0.065876685 0.05389831
0.00902371 -0.053123035 -0.003579178 0.08833962 0.0036203403 0.02370736 -0.022895172 -0.03232405
0.051045623 -0.074176736 0.027728895 0.080093704 0.053218544 -0.06482512 0.015285593 0.05428441

fc3.0.weight f4 [32, 64]
00000000: ea19 fabb 36a1 da3d 6b6b 8b3b b5f4 a83d
00000010: 57d9 babd af90 aabd 2fcf 093e 5e4e cf3d
00000020: 8e5f d43d f822 093e c841 a73d 381c 703c
00000030: d965 64bc 52c0 883c d6a1 72bd 1729 b8bd
00000040: 341b 743d f867 a8bd dae7 003d 10ea e73d
00000050: 1ace 5dbd 5f49 383d 7013 bebd 99d9 4e3d
00000060: 327f c33d d2aa 81bd aecf 18bd 392c f8bc
00000070: 04c7 df3d 91d8 ea3d 585f 8f3d 46c5 d9bd
00000080: 03b9 dabd caed fa3d 811c fa3d 2ba1 4cbd
00000090: c6a3 efbc d7f3 c3bd cbb6 cb3d 5d22 c33b
000000a0: d324 20bd 6149 073e 805d a8bd e289 703d
000000b0: 6955 453d 7339 fa3d dd61 943d 55be 94bd
000000c0: cdbc 1dbc da09 f03d a720 e23d 949e ac3c
000000d0: 6680 9f3d c949 b03d ba11 853d 86dd c13d
000000e0: 1335 e23b 1d59 a7bd 958e 873c 447e b33d
000000f0: 9d83 933c fb65 c83d 9b4c a93d 9b9f 0ebd
00000100: 3b09 1bbd f4ac 77bd 8062 c93a 1905 19bc
00000110: 2a5b 023e fc6b f33d 5cc8 acbd 954a 053e
00000120: fa64 c33b a6ed af3d fbc4 62bd 2637 703c
00000130: 0ee6 07bc c441 93bd a394 d8bc bec3 d4bd
00000140: c869 e5bd 758d 883c d3e2 d2bb 7978 dd3b
00000150: b019 703d dc1c d0bd c961 f1bd 4bec c2bd
00000160: 6024 c7bc a2ed f33c 398c a93a b571 edbc
00000170: cc84 8dbd 6bed e63d bff6 c43c 3c08 a93d
00000180: eb9a 033c f86f 473d 1f8c 88bd 868e 9cbd
00000190: 8f60 84bd 2542 9ebd 7f19 52bd 88ff 9fbc
000001a0: 73b7 a53d ea81 003e cd9a 31bd 571a 033d
000001b0: 676e ab3d d912 873c 3afd cb3d 5a12 cbbd
000001c0: 00fe 023e 7bfc bdbd 496e 92bd 42d6 4fbd
000001d0: ae9c 2d3d 7b5a 083c 39a7 d93d fbf9 80bd
000001e0: dc0d abbd 4612 033d 0423 cbbd 481f d3bd
000001f0: 2f81 f43d 6634 f73d 1cb0 c1bd e0d1 b3bd
00000200: ee38 6dbd 2ff1 4d3c 448f 88ba abdd e03c
00000210: 4704 0ebd 7fd0 1b3d f906 adbd 5c76 68bd
00000220: 531d 00be 8de0 12bd cf0c 883c fa6b 173d
00000230: dd61 2f3c 0071 cb3c 2a74 c93d a15c 78bd
00000240: 6bdc e8bd 2973 cc3d f8db 8ebd a6ed 4cbd
00000250: 7871 7ebd 5f13 cabc af12 873c fe8b e6bc
00000260: 1400 313d 1cc6 e13d 219e cb3d b073 c63d
00000270: 13d5 723c 1546 b73d 8f01 ef3c 7eee 1d3c
00000280: 42ec afbd ae2a 1bbd 9783 c63d d2b8 6e3c
00000290: f4f2 273d 743e 6d3d 2852 393d 7593 d6bd
000002a0: 2ee5 0c3d 51a7 c63d 6bbd 203b c4d5 95bd
000002b0: fb03 6cbd 8949 98bc 1c6d e73d 240c 25bc
000002c0: 3791 dd3d 1b5e 36bd 7eed e3bd 1a13 b3bd
000002d0: cf81 ca3d 3edc 023d 23af da3d 6238 eebd
000002e0: 8cd2 e1bd a141 ac3d 2071 b33d 920b 013d
000002f0: 793a 94bc 418a 5e3d d444 ebba 44fd 24bd
00000300: 37e1 d03d e340 073e a610 cf3d 76a1 8e3d
00000310: 5443 9d3d 4041 89bd 4262 31ba bacd 80bd
00000320: 6d71 7a3c 3071 013c 2e63 d9bd 0f3f 283d
00000330: b1e5 d73d 2b04 de3d f6d2 c3bd d33d b33d
00000340: d0bb db3d 2edb b5bd 4493 28bd b06c c8bd
00000350: 01f0 1fbd 0506 c13d 4f1b 143d c852 e73d
00000360: 133c 31bd 916e c5bd 43aa 033e 5125 e73c
00000370: 08aa 7bba 78d7 acbb f17e 433c 595d 433d
00000380: b49a d8bd 9f2f d73c 7683 de3b a578 90bd
00000390: 4384 c5bd dcbd 343d e194 7bbd 0ba9 363d
000003a0: 462f e63d b956 bebc 9493 0abd 48f6 663d
000003b0: 5071 65bd 5d1f 72bd cd4d 0f3d cdab b53c
000003c0: b0df 5a3d 233b 893d 4fa7 5bbc 997c ad3d
000003d0: e51b 3f3c 9cd0 d23d 5812 c53d d2dc 22bd
000003e0: 66f2 b7bc 329e 333d babc 3d3c e077 013c
000003f0: 65e5 4e3d 8d33 93bd 0596 c7bb 2689 853c
-0.0076324837 0.1067528 0.0042547486 0.08249799 -0.091234855 -0.083283775 0.1345794 0.10122369
0.10369788 0.13392246 0.08166844 0.014655165 -0.013940298 0.016693268 -0.05923637 -0.08992212
0.059596255 -0.082229555 0.03147111 0.11323941 -0.054151632 0.044991847 -0.09281051 0.050500486
0.09545745 -0.063314095 -0.037307434 -0.030294525 0.10926631 0.11467088 0.07000607 -0.1063333
-0.106798194 0.12252386 0.12212468 -0.04995839 -0.029252898 -0.09567993 0.09946974 0.005955024
-0.03909762 0.13211586 -0.08220959 0.058725245 0.048177157 0.12217989 0.072452284 -0.072628655
-0.009627533 0.11720629 0.11041384 0.02107171 0.07788162 0.086078234 0.06497522 0.0946608
0.0069032996 -0.08171294 0.01654748 0.08764318 0.018007094 0.09785076 0.082665645 -0.03482018
-0.0378506 -0.060467675 0.0015364438 -0.009339594 0.12730089 0.11885831 -0.08436653 0.13016732
0.005962965 0.0859025 -0.055363636 0.014661586 -0.008294595 -0.07190278 -0.026438063 -0.10388897
-0.11201817 0.016669014 -0.006435731 0.006758746 0.058618248 -0.101617545 -0.11786229 -0.095177256
-0.024309337 0.029776398 0.0012935466 -0.028984884 -0.069100946 0.11275753 0.024043439 0.08253524
0.008032541 0.048690766 -0.06667351 -0.07644372 -0.064637296 -0.0772746 -0.051293846 -0.019531026
0.08091631 0.12549558 -0.04336052 0.03200754 0.08370667 0.01648848 0.099604085 -0.0991561
0.12792206 -0.092766725 -0.071499415 -0.05074144 0.04238575 0.0083223535 0.10627598 -0.0629768
-0.08352253 0.03199985 -0.09918788 -0.10308701 0.11938702 0.12070541 -0.09457418 -0.08780265
-0.05791562 0.01256971 -0.0010418673 0.02744945 -0.034672048 0.038040634 -0.084485956 -0.0567535
-0.12511186 -0.03585868 0.01660767 0.03696821 0.010704485 0.024834156 0.0983661 -0.060635213
-0.113701664 0.099829026 -0.069755495 -0.050031327 -0.06211993 -0.02466744 0.016488401 -0.028142925
0.043212965 0.110241145 0.0994227 0.096900344 0.014821309 0.08948914 0.029175548 0.0096393805
-0.085899845 -0.0378825 0.096930675 0.014570432 0.041003183 0.057920888 0.045244366 -0.10477344
0.03439825 0.09699882 0.0024526964 -0.07316163 -0.057620984 -0.018589752 0.11300108 -0.010073695
0.10818713 -0.04452334 -0.111292824 -0.08743878 0.0988804 0.03194832 0.10677936 -0.11631848
-0.11026487 0.08410955 0.08761811 0.031505175 -0.018094288 0.054331068 -0.001794959 -0.040280595
0.10199206 0.13208346 0.10110597 0.0696439 0.076788574 -0.067018986 -0.0006766656 -0.06289239
0.015285832 0.007900521 -0.1061462 0.041075762 0.10541857 0.10840639 -0.09561722 0.087520264
0.10729182 -0.08879696 -0.04115607 -0.097863555 -0.039047245 0.09424976 0.036158856 0.11295086
-0.043270182 -0.096402295 0.12857918 0.028216036 -0.0009600227 -0.0052747093 0.011932121 0.047696445
-0.10576382 0.026267825 0.0067905737 -0.07054261 -0.096443675 0.044126377 -0.06142128 0.044594806
0.112394854 -0.023234712 -0.033832148 0.056387216 -0.056016266 -0.05911194 0.034986306 0.022176648
0.05343598 0.067007326 -0.013406589 0.08471031 0.011664365 0.10293695 0.096226394 -0.039761372
-0.022454452 0.04385204 0.01158064 0.007902116 0.050511736 -0.07187567 -0.006090882 0.016300749

fc3.0.bias f4 [32]
00000000: b7f2 da3d afe5 8dbc 0c41 3fbd a0c4 9a3c
00000010: 856f 16bd 5511 acbd 6b7f cbbd 37a1 b9bd
00000020: b97d 9c3d 8317 d53b 2f45 fb3a a623 9bbd
00000030: a80c 35bd 7195 d53d e717 88bd c797 c5bd
00000040: 070f 4b3d 2324 d73d d081 40bd 952d eb3d
00000050: 7b8a b8bd 5f23 ab3d b2c6 d83c ed9f 933d
00000060: b3f9 853d 6fa8 a23d 0917 573d b5a0 ddbc
00000070: 7e3f 0f3d a612 5b3d 9209 c3bd b5cf c8bc
0.106908254 -0.017321436 -0.046692893 0.018892586 -0.036727447 -0.08401743 -0.099364124 -0.090639524
0.07641167 0.006503047 0.0019170399 -0.07575159 -0.044201523 0.10428894 -0.06645184 -0.0964809
0.049574878 0.105049394 -0.0469988 0.114833035 -0.09010788 0.08356356 0.026461933 0.07208238
0.06541767 0.079422824 0.052512202 -0.02705417 0.03497266 0.05348458 -0.0952331 -0.024513105

linear.weight f4 [1, 32]
00000000: 4035 d33d b679 0c3e 0b63 92bc 756e 193e
00000010: a5ab 003e 45f4 153e 50b0 a03c 065e 353e
00000020: 01f7 2b3d 9d07 4cbd a1af 82bd 5124 04be
00000030: 7e84 6fbd c107 22be 0682 b23d 9a45 903d
00000040: 6e50 2a3e 54ea 583d d85e 81bd 5d08 0a3e
00000050: d1d4 b93d c088 debd 1d37 2fbe e4f6 333c
00000060: 860e f0bd 0db2 1a3e daa8 883d 5496 033e
00000070: ab27 60bd bb41 fcbd 0535 2ebd f2b4 113e
0.10312891 0.13718304 -0.017869493 0.14983542 0.12565477 0.14643963 0.019615322 0.17711648
0.04198361 -0.049811948 -0.06381155 -0.12904479 -0.058475964 -0.1582327 0.08716206 0.070445254
0.16632244 0.052957848 -0.06316918 0.13479753 0.09073795 -0.10865927 -0.17110868 0.010984156
-0.1172152 0.15106983 0.06672831 0.12850314 -0.05472533 -0.123172246 -0.042531032 0.14229181
